best_model.pth (torch, 862946 bytes, 11 tensors)

lstm.weight_ih_l0 f4 [512, 15]
0	0xbd1cc014	-0.038269117
1	0x3d825a1c	0.06364843
2	0x3d9842c7	0.07434612
3	0xbd2ab27e	-0.04167413
4	0x3c868d86	0.016424906
5	0xbd4cc895	-0.049995977
6	0xbda65ca0	-0.081231356
7	0xbdae4542	-0.08509304
8	0x3d378594	0.044805124
9	0x3bdff6fc	0.0068348628
10	0xbccf2caf	-0.025289861
11	0xbd1391c6	-0.036027692
12	0xbc730351	-0.014832334
13	0x3d7ae8a7	0.06125703
14	0x3c18f73b	0.009336288
15	0xbd1316a3	-0.03591026
16	0x3d418012	0.047241278
17	0xbd88ed33	-0.06685867
18	0x3d8d64a3	0.069039606
19	0x3d0af2d7	0.033922996
20	0x3d351f81	0.044219498
21	0x3d1784d4	0.03699191
22	0xbda2849b	-0.07935449
23	0x3d862d68	0.06551629
24	0x3c95233f	0.018205283
25	0x3d4a4d5c	0.049390182
26	0xbbd7f0e8	-0.0065899976
27	0xbd4d1d57	-0.05007681
28	0xbd088036	-0.033325396
29	0x3d970af4	0.07375136
30	0xbbcc2cd8	-0.0062309317
31	0xbd49b194	-0.049241617
32	0xbc515138	-0.012775712
33	0xbd9909a5	-0.07472543
34	0xbda40124	-0.0800803
35	0x3d700c2d	0.05860536
36	0x3d2235b0	0.03960198
37	0xbb9c6f49	-0.0047740084
38	0xbd5f6a51	-0.05454475
39	0xbd05713b	-0.032578688
40	0xbcf4bfd9	-0.029876636
41	0x3d3f2c2d	0.04667299
42	0xbd4430f1	-0.047898237
43	0xbbe58e94	-0.007005522
44	0x3bcab28a	0.0061858343
45	0xbd23923d	-0.039934386
46	0x3d74d53b	0.059773665
47	0xbc1902af	-0.009339019
48	0x3d1e8dcf	0.038709458
49	0x3abbfa88	0.0014341632
50	0xbd298271	-0.041384164
51	0xbbbdaf69	-0.005788733
52	0x3d888b57	0.06667202
53	0x3d885bd9	0.066581436
54	0xbd4b0d50	-0.049573243
55	0x3d04e372	0.03244347
56	0xbd884f16	-0.066557094
57	0xbd0c594d	-0.03426485
58	0x3dbb62ec	0.09149727
59	0xbd00c034	-0.0314333
60	0x3c0e7cb7	0.0086967265
61	0x3b9f718b	0.0048658303
62	0x3d905766	0.0704792
63	0x3c53a0a1	0.012916715
64	0x3c88335a	0.016626049
65	0x3d866a35	0.06563226
66	0x3dafee53	0.085903786
67	0x3dae3606	0.08506398
68	0x3d9831bf	0.07431363
69	0x3d57c666	0.052679442
70	0x3c04316a	0.008068422
71	0x3d89a1d4	0.067203194
72	0xbc903e27	-0.017607762
73	0x3c8429cc	0.016133212
74	0xbd550968	-0.052010924
75	0xbda43f1b	-0.08019849
76	0xbca30a3d	-0.019902343
77	0xbd061fb3	-0.032745074
78	0x3d836bd2	0.064170495
79	0x3d8daf86	0.06918244
80	0x3dae3c46	0.0850759
81	0xbcccb0a8	-0.02498658
82	0xbd1332ae	-0.035937004
83	0x3d958eb4	0.07302609
84	0xbd416d3c	-0.047223315
85	0xbcc5dc17	-0.024152799
86	0x3d0b90a2	0.03407348
87	0xbd452f89	-0.048141036
88	0x3d791d97	0.060819235
89	0xbd420473	-0.047367524
90	0x3d031d40	0.032010317
91	0xbda1364a	-0.07871683
92	0xbd93da90	-0.07219422
93	0xbbd15d59	-0.0063893017
94	0xbcacf4de	-0.021112856
95	0x3d7c6e7b	0.0616288
96	0x3ad30d98	0.0016102074
97	0x3d0285b8	0.031865805
98	0x3d1e52d8	0.038653225
99	0xbd4548b5	-0.048165042
100	0xbd97e2cd	-0.07416306
101	0x3d386c6a	0.045025267
102	0x3d736501	0.059422497
103	0x3ae5473d	0.0017492544
104	0x3da37f87	0.07983308
105	0xbda7af1d	-0.08187697
106	0xbd1e064a	-0.038580216
107	0xbd223bce	-0.039607815
108	0x3d455b4a	0.048182763
109	0xbd8ac949	-0.06776673
110	0xbd457f0c	-0.048216864
111	0x3c811f29	0.015761929
112	0xbdbcc324	-0.092169076
113	0x3dbf30fe	0.093355164
114	0x3c223b80	0.009901881
115	0xbb16f523	-0.0023034296
116	0x3d68f860	0.056877494
117	0x3d4bf155	0.0497907
118	0xbd9164ce	-0.07099305
119	0x3d2b7ed2	0.041868992
120	0xbd242c9b	-0.0400816
121	0x3dab574b	0.08366259
122	0xbc942901	-0.018085958
123	0x3d71a4d1	0.05899507
124	0x3d8b9884	0.068161994
125	0xbabeee55	-0.0014566878
126	0xbd40c746	-0.047065042
127	0x3d818e99	0.063260265
128	0xbd79cf72	-0.06098885
129	0x3cc1f333	0.023675537
130	0x3d9f4e95	0.0777866
131	0xbb20ea31	-0.0024553651
132	0x3c00b189	0.007854828
133	0xbd3d52bc	-0.04622148
134	0xbd6254dd	-0.055256713
135	0xbda1179d	-0.07865832
136	0xbd477787	-0.048697975
137	0x3dbba06f	0.0916146
138	0x3d484c6b	0.048901003
139	0x3d5c169b	0.053732496
140	0x3ce93740	0.028468728
141	0x3ce83de3	0.028349822
142	0xbd168ebc	-0.036757216
143	0xbd1dddbc	-0.03854154
144	0xbd3ee364	-0.046603575
145	0x3b6a094d	0.003571111
146	0xbd4db53f	-0.050221678
147	0xbd2d3540	-0.04228711
148	0xbb76f349	-0.003768163
149	0xbd3a0728	-0.04541698
150	0x3a2028ee	0.00061096146
151	0x3d4d9795	0.050193388
152	0xbd172e3c	-0.036909327
153	0xbcad6411	-0.02116588
154	0xbd3bb9fa	-0.045831658
155	0x3dadd707	0.08488279
156	0x3c3e0df4	0.011600006
157	0x3d3d22b5	0.046175677
158	0xbc31ba1e	-0.010847596
159	0x3cd70b1f	0.02625042
160	0xbd9dd985	-0.07707504
161	0x3cbc9da5	0.02302439
162	0x3da6bf76	0.08141987
163	0x3d9f09d0	0.077655435
164	0x3a9f831a	0.0012169809
165	0xbcccd30c	-0.025002979
166	0xbdb02eab	-0.08602651
167	0xbdb16dea	-0.086635426
168	0x3db2cb0c	0.08730134
169	0x3d549a56	0.051905
170	0xbd0a1364	-0.0337099
171	0xbce0e82f	-0.027454464
172	0xbd8f3902	-0.06993295
173	0xbd365323	-0.04451288
174	0x3cdb1872	0.026745055
175	0xbd21bbb5	-0.039485652
176	0xbd298448	-0.04138592
177	0x3d881523	0.066446565
178	0xbd40c596	-0.047063433
179	0x3d8f3316	0.06992166
180	0xbd540edb	-0.05177198
181	0x3cb23689	0.02175452
182	0xbd26b3cc	-0.04069881
183	0x3d0536da	0.032523014
184	0xbd02efce	-0.031966977
185	0xbd0f1ff6	-0.03494259
186	0xbd9bf187	-0.07614427
187	0xbc929d16	-0.01789717
188	0x3da07657	0.078350715
189	0xbbceccf0	-0.0063110515
190	0xbca4f857	-0.020137949
191	0x3d799a06	0.060937904
192	0x3d4c682c	0.049904034
193	0x3db079b3	0.08616962
194	0x3d887c14	0.06664291
195	0xbd7c97ab	-0.06166808
196	0xbc6830a0	-0.014171749
197	0x390dba78	0.00013516273
198	0x3d2c4eed	0.042067457
199	0x3bedb885	0.0072546625
200	0xbd8fb9cd	-0.070178606
201	0xbd34a5b9	-0.044103358
202	0xbce10ea2	-0.027472798
203	0xbd96a257	-0.073551826
204	0x3d82c8b8	0.0638594
205	0xbca86306	-0.02055503
206	0x3da96894	0.082719
207	0x3d3a185c	0.045433387
208	0x3d1cb4e0	0.038258433
209	0x3d880dea	0.06643279
210	0xbd073e8a	-0.033018626
211	0x3ce17411	0.027521165
212	0x3cee5ea1	0.029097857
213	0xbd92d101	-0.071687706
214	0x3ce4b2c0	0.027917266
215	0x3da0e3a5	0.0785592
216	0xbd8162c7	-0.063176684
217	0xbd25d725	-0.04048838
218	0xbd848891	-0.064713605
219	0xbda87e0c	-0.082271665
220	0x3d92dbe7	0.07170849
221	0x3d05ae68	0.03263703
222	0x3d07df35	0.03317185
223	0x3db90fa4	0.09036186
224	0xbba5d09a	-0.0050602676
225	0xbccc37ed	-0.024929011
226	0x3cbcecb2	0.023062084
227	0x3d5d787b	0.054069977
228	0xbbbed03c	-0.0058231633
229	0xbd98b842	-0.074570194
230	0xbd4b9cce	-0.049710087
231	0xbc9202ea	-0.017823655
232	0x3d9ff997	0.07811277
233	0xbd505156	-0.050858818
234	0xbd6f5008	-0.058425933
235	0x3dacbde4	0.08434656
236	0xbca5f255	-0.020257154
237	0x3d4b8c59	0.049694393
238	0x3d9d58ad	0.07682929
239	0x3c911f23	0.017715042
240	0x3d3677af	0.044547733
241	0xbdc9a638	-0.09846157
242	0xbcbf5955	-0.023358027
243	0xbdb9e2c3	-0.090764545
244	0x3c5a64fd	0.013329742
245	0x3c8c5fe2	0.017135564
246	0xbda20354	-0.07910791
247	0xbd8ee4f5	-0.06977264
248	0xbc94f05d	-0.01818102
249	0xbcaac1c0	-0.02084434
250	0xbd7a8580	-0.06116247
251	0x3c851128	0.016243532
252	0x3cc28388	0.02374436
253	0x3d28e6b8	0.041235656
254	0xbcc57c1b	-0.02410703
255	0x3daa5257	0.08316486

lstm.weight_hh_l0 f4 [512, 128]
0	0xbda12482	-0.078682914
1	0xbc8849d1	-0.01663676
2	0xbc3d60d7	-0.011558733
3	0xbd4c6ae1	-0.049906615
4	0xbc860b0e	-0.016362693
5	0x3d2fbf50	0.04290706
6	0x3d9146e4	0.070935994
7	0xbd01c5c2	-0.031682737
8	0x3d77bd86	0.060483478
9	0xbcf03eef	-0.029326884
10	0xbdb03718	-0.08604258
11	0xbcb53b3b	-0.02212297
12	0x3d3d9e5b	0.046293598
13	0x3d9b437b	0.0758123
14	0x3c634c9a	0.013873244
15	0xbc73e178	-0.014885299
16	0x3d731f17	0.05935582
17	0x3d664095	0.056213934
18	0x3c59523c	0.013264235
19	0xbd7b5ee3	-0.061369788
20	0xbd80999a	-0.06279297
21	0x3c0b9fd7	0.0085219955
22	0x3d7361b9	0.059419367
23	0xbd8ddec1	-0.069272526
24	0x3db53f22	0.08849932
25	0xbd9dd7f3	-0.07707205
26	0xbcaf0dc7	-0.021368874
27	0x3d5d213f	0.053986784
28	0x3da5a572	0.08088197
29	0x3d9ccd25	0.07656316
30	0xbda408e9	-0.08009512
31	0x3d580e1f	0.052747842
32	0x3d7b1d5e	0.061307304
33	0x3d01a979	0.031655762
34	0xbdb6fcdc	-0.08934948
35	0xbd11e6cf	-0.035620507
36	0xbd87426c	-0.06604466
37	0xbd9ef8f6	-0.07762329
38	0x3d2d7022	0.042343266
39	0x3d599628	0.053121716
40	0xbd96314c	-0.073336214
41	0x3d202688	0.039099246
42	0xbda9baab	-0.08287557
43	0x3daad17e	0.08340739
44	0x3d365361	0.04451311
45	0x3d822252	0.06354202
46	0x3d6c1b17	0.057643022
47	0xbb3baecb	-0.002863812
48	0xbd8ec2e1	-0.06970764
49	0x3d6370db	0.05552755
50	0x3da7bb48	0.08190018
51	0x3d70a55b	0.058751445
52	0x3db2714b	0.08713015
53	0x3c8b62cf	0.017014889
54	0xbcecdcb5	-0.028913835
55	0x3c812a1a	0.015767146
56	0xbd8af9c6	-0.06785922
57	0x3d91a5fc	0.07111737
58	0xbd2bffc4	-0.041991964
59	0xbd5f75b5	-0.054555614
60	0x3d872e65	0.06600646
61	0x3cabac18	0.020956084
62	0xbd28bcfb	-0.04119585
63	0x3d93ec87	0.072228484
64	0xbd98079a	-0.07423325
65	0xbd338c9c	-0.043835267
66	0x3bd0b653	0.006369391
67	0xbc20d501	-0.009816409
68	0xbda6634a	-0.08124407
69	0xbd96b908	-0.07359511
70	0xbc24af60	-0.010051578
71	0x3d054f70	0.03254646
72	0xbd9e3bf3	-0.07726278
73	0x3d64738a	0.05577425
74	0xbd879ac4	-0.06621316
75	0xbd892904	-0.06697276
76	0x3d956881	0.07295323
77	0x3d6a7312	0.057238646
78	0xbd77421e	-0.06036579
79	0x3d87a0cc	0.066224664
80	0x3cbd9230	0.023140997
81	0xbd292799	-0.04129753
82	0x3d922169	0.07135279
83	0x3d836f4d	0.06417713
84	0x3d871a78	0.065968454
85	0x3db5f206	0.08884053
86	0x3d092513	0.033482622
87	0xbd4a35a1	-0.04936755
88	0xbd1539a3	-0.03643192
89	0x3d8adb75	0.06780139
90	0x3d812f04	0.06307796
91	0x3cf9cec3	0.0304941
92	0x3d4d72af	0.0501582
93	0xbd5ffabb	-0.054682475
94	0x3dbbf945	0.09178404
95	0x3cc2caa3	0.023778265
96	0x3cc54499	0.024080561
97	0xbd2b2d8c	-0.041791484
98	0x3daa95e3	0.0832937
99	0xbd15fb55	-0.036616642
100	0xbdc79dc3	-0.097468875
101	0xbd53382c	-0.05156724
102	0xbd51eb5c	-0.051249847
103	0xbd5674e6	-0.052357577
104	0x3ca88a67	0.020573808
105	0xbd88d2d4	-0.06680837
106	0xbd8098e1	-0.06279159
107	0xbd8680f5	-0.06567565
108	0x3d28c48c	0.041203067
109	0x3c8f05e9	0.017458873
110	0xbc637010	-0.013881698
111	0xbb25273d	-0.002520039
112	0x3ca3632c	0.01994475
113	0x3ca52fbb	0.020164361
114	0xbd108102	-0.03527928
115	0xbb997855	-0.004683534
116	0x3c9cea39	0.019154655
117	0x3d58cc7a	0.05292938
118	0xbd96de10	-0.07366574
119	0x3c9570e4	0.018242307
120	0xbd5b68d6	-0.053566776
121	0xbd8dd279	-0.0692491
122	0xba7d3e1c	-0.0009660439
123	0xbdae8f5e	-0.08523439
124	0x3dae3c01	0.085075386
125	0x3d9bfbaf	0.07616364
126	0xbc15cf37	-0.009143642
127	0x3cc437d4	0.023952402
128	0xbd0ab943	-0.033868086
129	0xbdbfda0b	-0.0936776
130	0x3bf29789	0.0074033183
131	0xbd45a193	-0.048249792
132	0x3d5503a9	0.052005444
133	0x3c5364a5	0.0129024135
134	0xbc691444	-0.014226023
135	0xbd8a9d75	-0.06768314
136	0x3db311bf	0.08743619
137	0xbc137f7c	-0.009002563
138	0xbd9c0663	-0.07618406
139	0xbd9722e7	-0.07379704
140	0x3cd0ffbd	0.02551257
141	0x3d016747	0.031592634
142	0xbd60eb53	-0.054911923
143	0xbd99ae2c	-0.07503924
144	0x3cab517c	0.020912878
145	0xbc89d43f	-0.01682484
146	0xbd2b87eb	-0.04187767
147	0x3d6656ed	0.056235243
148	0xbdb38ab2	-0.087666884
149	0x3d489b3e	0.048976175
150	0xbd5a45a3	-0.053289067
151	0x3d1e2a20	0.038614392
152	0x3d7a6410	0.061130583
153	0xbda6a8a4	-0.081376344
154	0x3cc47d91	0.023985656
155	0xbd447ab0	-0.047968566
156	0xbdb013d3	-0.08597531
157	0x3d154b84	0.03644897
158	0xbd19a9d8	-0.03751549
159	0xbd1bd267	-0.038042452
160	0x3d8b0b57	0.06789272
161	0x3d1ce96c	0.038308546
162	0x3c6c90bc	0.014438804
163	0x3d3d48f2	0.046212144
164	0x3d95bd17	0.07311457
165	0x3d19bed7	0.037535515
166	0x3db9517c	0.09048745
167	0x3d0ca3b6	0.034335814
168	0x3c72f701	0.014829398
169	0xbcda7198	-0.026665494
170	0x3d0dc231	0.034609023
171	0x3d3a6b2f	0.045512374
172	0x3d977aa7	0.07396441
173	0xbd6ba0e9	-0.057526503
174	0xbdb0113b	-0.085970365
175	0xbd43aa81	-0.047770027
176	0xbda2e507	-0.0795384
177	0xbdbd5c3e	-0.092461094
178	0x3cb00646	0.021487366
179	0xbd9afc79	-0.075676866
180	0x3d96ddd7	0.07366531
181	0xbd937d9e	-0.07201694
182	0x3d2efc9e	0.042721383
183	0x3c8bd194	0.017067708
184	0xbd20c253	-0.039247822
185	0x3d3fa5a5	0.04678883
186	0xbd6d6b2d	-0.05796354
187	0xbc86dff5	-0.016464213
188	0x3d7b1afb	0.061305027
189	0xbcec637e	-0.028856035
190	0xbdbb7301	-0.09152795
191	0x3caf9151	0.021431597
192	0xbd812b09	-0.063070364
193	0x3d72674a	0.059180535
194	0xbca654a7	-0.020304037
195	0xbc008488	-0.007844098
196	0xbd2a7b27	-0.041621353
197	0x3cef71bd	0.02922904
198	0x3c8ee06e	0.017441
199	0xbd751b2d	-0.05984037
200	0x3d620b5f	0.055186626
201	0xbd95ba99	-0.07310981
202	0xbd76ece3	-0.060284507
203	0xbd1c392b	-0.038140457
204	0xbc162382	-0.009163739
205	0xbcd1dccb	-0.025617978
206	0x3c8e37ae	0.017360535
207	0x3cf8012c	0.030273996
208	0xbd3180c4	-0.04333569
209	0xbc34daad	-0.0110384645
210	0x3d8bc999	0.06825561
211	0x3daadc5e	0.08342813
212	0xbd960386	-0.07324891
213	0x3cb0347a	0.021509398
214	0xb841dc1a	-4.621977e-05
215	0xbd57ce43	-0.05268694
216	0xbdb51576	-0.08841984
217	0xbd845bc5	-0.06462816
218	0x3d86fd60	0.06591296
219	0xbda9182d	-0.08256564
220	0xbd97f8e5	-0.0742052
221	0xbc0663ac	-0.008202475
222	0xbc14b2b4	-0.009075809
223	0xbca72cc0	-0.02040708
224	0xbd461615	-0.048360903
225	0xbc8a1038	-0.016853437
226	0xbd83d73e	-0.064375386
227	0xbdbd7280	-0.09250355
228	0xbb5b3343	-0.0033447302
229	0xbd4aa133	-0.049470138
230	0x3d326b79	0.043559525
231	0xbc781a6d	-0.015143019
232	0xbd6358b4	-0.055504516
233	0x3d45ca62	0.04828871
234	0xbd041aa5	-0.032251973
235	0x3d53795f	0.05162942
236	0x3d8bd386	0.06827454
237	0xbc8249a4	-0.015904255
238	0x3d6fc27c	0.058535084
239	0x3a8d94d2	0.0010801798
240	0xbd980d29	-0.07424385
241	0xbb109e92	-0.0022067172
242	0x3cdb519e	0.026772317
243	0xbdb4f6e0	-0.0883615
244	0x3d14ec39	0.036358092
245	0x3d4e4319	0.050356958
246	0x3ce34252	0.027741585
247	0x3d4360d5	0.047699768
248	0x3d5cefe8	0.05393973
249	0x3cb11b9c	0.02161961
250	0x3cf59502	0.029978279
251	0x3db1aca9	0.086755104
252	0xbd08e966	-0.03342571
253	0xbd0e23a6	-0.034701966
254	0x3cecc186	0.028900873
255	0x3ce80017	0.028320355

lstm.bias_ih_l0 f4 [512]
0	0x3ba6b9f0	0.0050880834
1	0xbb94035b	-0.0045170016
2	0x3d97f99f	0.07420658
3	0x3c71bf46	0.014755076
4	0x3bc5706c	0.0060253646
5	0xbd96beb0	-0.073605895
6	0xbb999151	-0.0046865125
7	0xbd3420f7	-0.04397675
8	0xbd2fa75c	-0.042884216
9	0xbd27a882	-0.040932186
10	0xbd877009	-0.06613166
11	0xbd84e058	-0.06488103
12	0x3d4d5fc1	0.050140146
13	0x3ce239ad	0.027615393
14	0xbd8814e2	-0.06644608
15	0xbd17060c	-0.036871
16	0xbd57c87a	-0.052681424
17	0xbda4158e	-0.08011924
18	0xbd9bb4c3	-0.07602837
19	0x3c3dcecf	0.011584952
20	0xbadf237e	-0.0017024127
21	0x3d2513ed	0.040302206
22	0x3d2e200e	0.04251104
23	0x3d5aa000	0.053375244
24	0x3d6150f5	0.055008847
25	0xbc875475	-0.016519764
26	0xbc93cd17	-0.01804213
27	0x3db0b248	0.086277544
28	0x3da2abf2	0.07942952
29	0xbd9d6a9a	-0.07686348
30	0xbd949def	-0.07256686
31	0xbd0fd62c	-0.03511636
32	0x3d0f0a33	0.034921836
33	0x3dce5a88	0.10075861
34	0x3ca0aba3	0.019613093
35	0xbcbbab9c	-0.022908978
36	0x3c3a12aa	0.011356989
37	0x3d10b201	0.035326008
38	0x3dabe8ae	0.083939895
39	0xbd4e9aeb	-0.05044071
40	0x3da17296	0.07883184
41	0x3c53c741	0.012925924
42	0x3d846402	0.064643875
43	0xbd0893f8	-0.03334424
44	0xbd86ddba	-0.0658526
45	0xbd1ac845	-0.03778865
46	0x3d3ce5be	0.046117537
47	0xbd53f3c4	-0.051746145
48	0x3d44c5bc	0.048040137
49	0x3cc55fe3	0.024093574
50	0xbd42b158	-0.04753241
51	0xbda271b7	-0.07931846
52	0x3d85f037	0.06539958
53	0xbc784ebe	-0.015155492
54	0x3d781c28	0.060573727
55	0x3d8a14be	0.067422375
56	0x3ce762f2	0.028245423
57	0xbd9af691	-0.0756656
58	0x3ca2eea8	0.01988919
59	0x3b969648	0.0045955516
60	0xbd8b7ae9	-0.068105526
61	0xbd0daaff	-0.034586903
62	0xbcb10e71	-0.021613332
63	0x3d9dbc71	0.07701958
64	0x3c975d3b	0.018477073
65	0xbd981d38	-0.07427448
66	0xbd3fd746	-0.04683616
67	0xbb6f312e	-0.003649782
68	0x3d5df30a	0.05418686
69	0xbd8b20f2	-0.06793393
70	0xb983e1d6	-0.00025154528
71	0x3dabc181	0.08386517
72	0xbc9a59fe	-0.01884174
73	0x3d7c6759	0.061621998
74	0x3d88f42e	0.066871986
75	0x3db27545	0.08713774
76	0xbd960109	-0.07324416
77	0xbc2de396	-0.010613343
78	0x3c604698	0.013688706
79	0xbd410fe1	-0.047134284
80	0xbd5bb587	-0.053639915
81	0xbd583287	-0.05278256
82	0xbb5d2336	-0.0033742911
83	0x3d8e177c	0.06938073
84	0x3d910b76	0.07082264
85	0xbccfa219	-0.025345849
86	0x3d7fcbc1	0.062450174
87	0xbc9b5db8	-0.018965587
88	0xbd8446b6	-0.064587995
89	0xbd3bd260	-0.045854926
90	0xbccaa90a	-0.024738807
91	0xbd10a48e	-0.03531318
92	0xbcdda84d	-0.027057791
93	0x3d95c598	0.07313079
94	0x3d746cf0	0.059674203
95	0xbd126c8d	-0.035748053
96	0xbcc75404	-0.024332054
97	0x3bcda4c7	0.0062757465
98	0xbcef59dd	-0.029217655
99	0xbdc1f1e9	-0.09469969
100	0x3dabe463	0.08393171
101	0xbd1f5ff2	-0.03890986
102	0xbd6f066b	-0.05835573
103	0x3d9e6ad2	0.07735218
104	0x3cbfb660	0.023402393
105	0x3da76231	0.081730254
106	0x3d14041e	0.03613674
107	0x3d851de2	0.0649984
108	0x3bd5b11f	0.0065213586
109	0xbc111ce5	-0.008856987
110	0xbd57d60f	-0.052694377
111	0xbd82eb5e	-0.06392549
112	0x3d838dfc	0.06423566
113	0xbd47ee21	-0.04881108
114	0xbb38b77b	-0.0028185535
115	0xbd4a4b28	-0.04938808
116	0x3d2ad259	0.04170451
117	0x3d3883c2	0.04504753
118	0x3d9960e8	0.074891865
119	0xbc9922bb	-0.018693319
120	0x3d92e64b	0.07172831
121	0x3c988844	0.018619664
122	0xbd019218	-0.031633466
123	0xbd8f4d57	-0.06997173
124	0x3d2f572b	0.04280774
125	0x3c8ccc0f	0.017187146
126	0xbadf11ab	-0.0017018815
127	0xbd0ed145	-0.034867544
128	0x3c9db4d5	0.019251266
129	0x3ce6a434	0.02815447
130	0xbd6e8af5	-0.05823799
131	0x3d290bef	0.041271146
132	0xbcda2045	-0.026626715
133	0x3d832006	0.06402592
134	0x394860a6	0.0001910949
135	0x3d88742b	0.06662782
136	0xbd1c8fdf	-0.038223144
137	0x3d00a2c3	0.03140522
138	0x3da8919d	0.082308985
139	0x3d82e44f	0.06391203
140	0x3dac47ce	0.08412133
141	0x3d96f4ca	0.073709086
142	0x3bd4259c	0.00647421
143	0x3d98479e	0.07435535
144	0xbda9b3e2	-0.08286263
145	0x3d2b7be6	0.041866206
146	0xbd6dcc88	-0.058056384
147	0x3d26f973	0.040765237
148	0x3d89f90b	0.06736954
149	0xbc32f5f7	-0.0109229
150	0x3cd603a9	0.026124792
151	0xbd16418e	-0.03668361
152	0x3d11c15d	0.035584796
153	0x3d9ec6f1	0.07752789
154	0xbdb6a23a	-0.08917661
155	0x3d8942f3	0.06702223
156	0x3d7101bd	0.05883955
157	0xbd40596d	-0.046960283
158	0x3bbafe88	0.005706612
159	0xbdc5a5b1	-0.09650744
160	0xbd890999	-0.06691284
161	0x3d9a7e72	0.07543649
162	0x3c8a35e8	0.016871408
163	0xbd5e189c	-0.054222688
164	0xbd6fc98f	-0.05854183
165	0xbb61d6b8	-0.0034460258
166	0xbb40ab5b	-0.002939901
167	0xbd3ec099	-0.046570394
168	0x3d0ed5f3	0.034872007
169	0x3d864420	0.065559626
170	0xbdbbb580	-0.09165478
171	0x3d3f9957	0.046777096
172	0xbd8719b1	-0.06596697
173	0xbd08976e	-0.03334754
174	0xbd315873	-0.043297242
175	0x3d9516ee	0.07279764
176	0x3c477813	0.012174624
177	0xbd08b802	-0.03337861
178	0xbd9b0d76	-0.07570927
179	0xbd9fe8ac	-0.078080505
180	0xbd5e5209	-0.054277454
181	0xbdacbf92	-0.08434977
182	0xbb5404ca	-0.0032351487
183	0xbce030c6	-0.027367007
184	0xbd710623	-0.058843743
185	0x3d8188df	0.06324934
186	0xbd3d108e	-0.046158366
187	0x3da50448	0.08057457
188	0x3d881db5	0.06646291
189	0x3d83c9b9	0.0643496
190	0xbdbed601	-0.09318162
191	0xbda40142	-0.080080524
192	0xbd89a79f	-0.06721424
193	0xbd946b44	-0.07247022
194	0xbda3591c	-0.07975981
195	0xbce86bcb	-0.028371712
196	0xbd4d337b	-0.050097924
197	0xbd89e595	-0.067332424
198	0xbad1af2a	-0.0015997638
199	0xbd817f5f	-0.06323122
200	0xbd8214e7	-0.06351643
201	0x3d73c8c8	0.05951765
202	0x3ac3f607	0.0014950641
203	0x3cc09fde	0.02351373
204	0xbcd4ad83	-0.025961643
205	0x3cf5d64e	0.030009415
206	0xbda13483	-0.07871344
207	0xbb062e57	-0.0020474398
208	0x3c91148d	0.017709995
209	0xbbe7e487	-0.007076803
210	0x3d98b7ca	0.0745693
211	0xbd821fbb	-0.06353708
212	0xbd445df2	-0.047941156
213	0xbcd5c018	-0.026092574
214	0x3d5bbcca	0.05364684
215	0x3da2d4fe	0.07950781
216	0x3dbaeea8	0.09127551
217	0xbd7e22c5	-0.062044878
218	0x3d07e8ea	0.03318111
219	0x3d58629e	0.052828424
220	0xbd6f8736	-0.058478557
221	0xbd80a874	-0.0628213
222	0x3cf54367	0.029939367
223	0xbcdb54a3	-0.026773756
224	0x3d0f6788	0.035010844
225	0x3d020ecc	0.031752393
226	0x3d8ac881	0.06776524
227	0x3d55ae85	0.052168388
228	0x3d90b61d	0.07065985
229	0xbd0a86b3	-0.033819865
230	0x3ca2dda3	0.019881075
231	0x3b793f9c	0.00380323
232	0x3ce1fef7	0.027587397
233	0x3dacd1e8	0.08438474
234	0xbd1edf69	-0.03878728
235	0x3b2e8874	0.0026631625
236	0xbc8e5dc6	-0.017378699
237	0xbd84eaf0	-0.06490123
238	0x3d93902e	0.072052345
239	0x3d836529	0.06415779
240	0x3c250fb6	0.010074547
241	0xbd574d63	-0.052564036
242	0x3c218e47	0.009860582
243	0x3ce7e1ab	0.028305849
244	0xbd803def	-0.06261813
245	0x3cb93ea1	0.022612872
246	0xbd6795f5	-0.056539495
247	0x3d29308f	0.041306075
248	0xbd8b2ddf	-0.067958586
249	0xbd3ae68a	-0.045630015
250	0xbda459e0	-0.08024955
251	0x3da9a880	0.08284092
252	0x3d940024	0.07226589
253	0xbd86c6a9	-0.0658086
254	0x3ce779d2	0.02825633
255	0xbcc5e1e3	-0.024155563

lstm.bias_hh_l0 f4 [512]
0	0x3c41d5ae	0.01183073
1	0xba82fc3b	-0.0009993383
2	0xbd1d8327	-0.038455155
3	0x3cd5313b	0.026024451
4	0x3d41339c	0.04716836
5	0x3b11f94a	0.0022273832
6	0xbc6f8353	-0.0146187125
7	0x3d901b40	0.070364475
8	0x3d4f981e	0.05068218
9	0x3d9b9e89	0.075985976
10	0xbca4e7c6	-0.02013005
11	0xbdc56b3c	-0.09639594
12	0x3d328d3d	0.043591727
13	0x3c917237	0.017754657
14	0x3cf42785	0.029804
15	0xbda271b5	-0.07931844
16	0xbcf44a39	-0.029820548
17	0xbb6108ef	-0.00343376
18	0xbcbe5645	-0.023234496
19	0xbd2c1ddc	-0.042020664
20	0xbd692b3c	-0.056925997
21	0x3d80350d	0.06260119
22	0x3c8a5221	0.016884865
23	0x3d97de21	0.074154146
24	0x3bb94b2e	0.005654714
25	0x3dc98675	0.09840099
26	0xbd9b8272	-0.0759324
27	0xbd8fd309	-0.07022674
28	0x3c24f1fb	0.010067458
29	0x3db1de8d	0.08685026
30	0x3d7d3150	0.061814606
31	0xbd99f078	-0.07516569
32	0xbda98c90	-0.08278763
33	0xbd14e268	-0.03634873
34	0x3da6bdfa	0.08141704
35	0xbd108837	-0.035286155
36	0x3da05f2b	0.07830652
37	0xbdad0ea6	-0.084500596
38	0x388c76d0	6.697851e-05
39	0xbdc0040e	-0.09375773
40	0xbd883dbf	-0.06652402
41	0xbdbc360c	-0.09189996
42	0xbd53c439	-0.051700804
43	0x3d8f006a	0.06982501
44	0xbd4dd0e0	-0.050248027
45	0x3ccf2268	0.02528496
46	0xbda563f6	-0.08075707
47	0xbd948c22	-0.07253291
48	0x3a86b55c	0.0010277438
49	0x3cc6d2f7	0.024270518
50	0x3d344f57	0.044020977
51	0x3c993364	0.018701263
52	0x3d457ffe	0.048217766
53	0xbd6c4b77	-0.057689156
54	0x3cd4e2f5	0.025987128
55	0x3c128d06	0.008944755
56	0x3d7547da	0.059882976
57	0x3bc20d61	0.005922005
58	0xbc24b084	-0.01005185
59	0x3da132bf	0.07871007
60	0x3d40bf31	0.047057334
61	0xbd77758e	-0.060414843
62	0x3cba36ee	0.02273127
63	0x3cf7613f	0.030197738
64	0xbd688665	-0.056768794
65	0xbd465ab3	-0.04842634
66	0x3ca3fd9d	0.020018393
67	0xbce832ff	-0.02834463
68	0x3cab357a	0.020899523
69	0x3c258de5	0.010104631
70	0x3dcd5b5c	0.10027191
71	0xbb0320b8	-0.0020008516
72	0xbdabcc39	-0.08388562
73	0xbd62e672	-0.05539555
74	0xbdaa6793	-0.083205365
75	0xbd4f20e7	-0.050568487
76	0xbd247173	-0.040147256
77	0xbd41c66a	-0.047308363
78	0x3d979551	0.07401527
79	0x3d934aed	0.07192025
80	0x3d86999c	0.065722674
81	0x3be44705	0.006966474
82	0x3cc60549	0.024172442
83	0xbd1952e0	-0.03743255
84	0x3d1f030a	0.038821258
85	0xbd032278	-0.032015294
86	0xbd926f43	-0.07150128
87	0xbd5bb78d	-0.053641845
88	0x3ccc040b	0.024904272
89	0x3da6a9b2	0.081378356
90	0x3d81769f	0.06321453
91	0x3db319a4	0.08745125
92	0x3cbf96cb	0.023387333
93	0x3d625380	0.055255413
94	0xbcce6d5b	-0.02519863
95	0x3d1b4fee	0.037918024
96	0x3c1b5f4c	0.00948317
97	0xbd330873	-0.04370923
98	0xbc073865	-0.008253192
99	0x3cebfb26	0.02880628
100	0x3d98b999	0.07457275
101	0x3d3c2089	0.045929465
102	0x3de8d5c3	0.11368897
103	0xbd22259f	-0.03958666
104	0xbcc716b0	-0.02430281
105	0x3da11d33	0.078668974
106	0xbcae7c51	-0.021299513
107	0xbd7ecd51	-0.062207524
108	0x3d7b14c8	0.061299115
109	0xbc56e1e8	-0.013115384
110	0x3d8f2913	0.06990256
111	0xbcfb40ac	-0.030670486
112	0x3d733832	0.059379764
113	0x3c3de531	0.011590288
114	0x3d61381f	0.054985162
115	0x3cdc156a	0.02686568
116	0xbd3c2dc3	-0.04594208
117	0x3b1d8aea	0.0024039098
118	0xbd2228bd	-0.039589632
119	0x3cbbd595	0.022928992
120	0x3d748ac8	0.059702665
121	0x3d14e576	0.036351644
122	0x3d099572	0.033589788
123	0x3d9be702	0.076124206
124	0xbc50308f	-0.01270689
125	0x3d8708d9	0.065934844
126	0x3d54866f	0.05188602
127	0x3d626bed	0.055278707
128	0x3d9dd7d3	0.07707181
129	0x3d96a4cf	0.073556535
130	0xbd59871d	-0.05310737
131	0x3d8bb112	0.06820883
132	0xbd0001fe	-0.0312519
133	0x3a09f921	0.00052632584
134	0x3d627053	0.055282902
135	0xbd554bdd	-0.052074302
136	0x3d1dfe8b	0.03857283
137	0x3d070c02	0.032970436
138	0x3be4c7dd	0.0069818334
139	0xbd62978a	-0.0553203
140	0xbd9bbc4a	-0.07604273
141	0x3c50b540	0.012738526
142	0xbd708b0f	-0.058726367
143	0xbd84d257	-0.06485432
144	0xbd9dff85	-0.07714752
145	0x3d8dc028	0.069214165
146	0x3d95ad64	0.07308462
147	0xbc02d958	-0.007986389
148	0x3da3a48f	0.079903714
149	0x3d2be46e	0.041965894
150	0x3c38cc2b	0.011279146
151	0x3c46b791	0.012128727
152	0xbd30de3d	-0.043180693
153	0xbce6e531	-0.028185459
154	0x3d018b49	0.031626973
155	0x3d2b3b80	0.04180479
156	0xbcec5f95	-0.02885417
157	0xbd23baaf	-0.039972957
158	0xbd0591b2	-0.03260965
159	0xbd895c20	-0.067070246
160	0xbdaa5c9f	-0.08318447
161	0x3beb0742	0.007172496
162	0xbc8ab400	-0.016931534
163	0x3d6d511b	0.057938676
164	0x3daa0972	0.08302583
165	0xbda6039a	-0.08106156
166	0x3c500282	0.01269591
167	0x3d2cf3c4	0.04222466
168	0x3d04f4fa	0.03246019
169	0x3cf654dc	0.030069761
170	0xbdc0134e	-0.09378682
171	0x3d28dbf1	0.041225377
172	0xbdb51f4d	-0.08843861
173	0x3beb7d7c	0.0071865898
174	0xbc06e85e	-0.008234112
175	0x3dab0d09	0.08352096
176	0xbb878574	-0.004135782
177	0x3db1730d	0.08664522
178	0xbd448722	-0.047980435
179	0xbc4c6b76	-0.012476793
180	0xbcd71c3a	-0.026258577
181	0xbdb4d43c	-0.08829543
182	0x3d95ec71	0.07320488
183	0xbab73c7c	-0.0013979818
184	0xbc7a6ad0	-0.015284255
185	0xbd8cc409	-0.06873328
186	0x3d7e8748	0.062140733
187	0xbdac2200	-0.084049225
188	0xbd92d415	-0.07169358
189	0x3c42282e	0.0118504
190	0x3cde6d74	0.0271518
191	0x3c81e24e	0.01585498
192	0xbda17445	-0.07883505
193	0x3d4ed3c2	0.050494917
194	0xbda68d8f	-0.08132469
195	0x3cae8f39	0.021308528
196	0xbc7628ac	-0.015024345
197	0x3d5d17e1	0.05397785
198	0xbd308c7a	-0.04310272
199	0x3c830967	0.015995694
200	0x3d4727bf	0.04862189
201	0x3c33083f	0.010927259
202	0xbd8bdbbf	-0.068290226
203	0x3cff62c1	0.03117502
204	0x3d7150e0	0.05891502
205	0x3d124863	0.035713565
206	0xbd690f93	-0.05689962
207	0x3c2c7b32	0.010527419
208	0x3cff8cd8	0.03119509
209	0x3ce68e25	0.028143952
210	0x3cb04b8d	0.0215204
211	0x3cdde932	0.027088735
212	0x3da69734	0.081343085
213	0xbd05e465	-0.032688517
214	0xbdb7861c	-0.08961126
215	0x3d3b2598	0.04569015
216	0x3d09e499	0.033665273
217	0x3d5750b7	0.05256721
218	0x3cedcc92	0.02902821
219	0xbd647892	-0.055779047
220	0x3ba855ef	0.005137197
221	0xbd741436	-0.059589587
222	0xbda78f51	-0.08181632
223	0xbd765e16	-0.06014832
224	0x3bc1269c	0.005894495
225	0xbc8082e0	-0.015687406
226	0x3d98c4c9	0.07459409
227	0x3da7d5bc	0.081950635
228	0xbb78523d	-0.0037890815
229	0xbd544d47	-0.05183151
230	0x3a179b92	0.00057833747
231	0x3ca45a9c	0.020062737
232	0xbc272c18	-0.010203384
233	0xbd17fed6	-0.037108265
234	0xbcd46828	-0.025928572
235	0x3d61ec48	0.055156976
236	0xbd8a7099	-0.067597575
237	0xbd06608c	-0.032806918
238	0x3c32cb79	0.0109127695
239	0x3d29d1ab	0.04145972
240	0xbd9f9006	-0.07791142
241	0x3d86a1d5	0.06573836
242	0x3d969fd5	0.07354704
243	0xbd274252	-0.040834732
244	0x3d93ad89	0.072108336
245	0xbce6e9f7	-0.028187735
246	0x3d37d7fd	0.044883717
247	0x3b6c3839	0.0036044254
248	0xbd85f8e5	-0.065416135
249	0x3d20b7f2	0.039237924
250	0x3d81ac33	0.063316725
251	0x3d56ab65	0.05240955
252	0xbda7a2ee	-0.08185373
253	0x3d9a71ba	0.07541223
254	0xbd4921e8	-0.0491046
255	0x3d81f993	0.06346431

lstm.weight_ih_l1 f4 [512, 128]
0	0xbdc293f3	-0.09500875
1	0xbda78df0	-0.08181369
2	0x3d5219d1	0.05129415
3	0x3dbde8f7	0.0927295
4	0xbc75325f	-0.014965623
5	0xbd3912ff	-0.04518413
6	0xbdb956bc	-0.090497464
7	0x3da813c3	0.08206894
8	0x3d0db687	0.0345979
9	0x3d896371	0.0670842
10	0xbd52f19e	-0.051499955
11	0x3b4aeaed	0.003096278
12	0x3d91d1ba	0.0712008
13	0x3db438dd	0.08799908
14	0xbd65b6f0	-0.056082666
15	0xbda12ff7	-0.07870477
16	0x3d466c54	0.048443154
17	0x3c85af25	0.016318867
18	0xbcec827a	-0.02887081
19	0x3d837ea0	0.06420636
20	0xbdbb390c	-0.0914174
21	0x3d0634d8	0.03276524
22	0x3d84a05f	0.06475901
23	0xbd9af02d	-0.07565341
24	0xba4476f2	-0.0007494531
25	0xbc9811c5	-0.01856316
26	0xbc4b0e57	-0.012393556
27	0xbcb146d0	-0.021640211
28	0xbc86ac04	-0.016439445
29	0xbd8b9ae3	-0.06816652
30	0x3d1c8e75	0.038221795
31	0xbd52f19e	-0.051499955
32	0xbdb3eee1	-0.08785797
33	0xbd9543fa	-0.07288356
34	0xbd8aefda	-0.06784029
35	0xbd7351bc	-0.05940412
36	0xbdb437a3	-0.08799674
37	0x3d46207f	0.048370834
38	0x3d198809	0.03748325
39	0xbc88b348	-0.01668705
40	0xba17dec2	-0.00057933864
41	0x3daaf8c8	0.083482325
42	0x3cca880f	0.02472308
43	0xbd69c127	-0.05706897
44	0x3b095ef1	0.002096113
45	0xbd7ea138	-0.06216547
46	0x3c8af60c	0.016963027
47	0xbc569af2	-0.013098465
48	0x3c85e034	0.01634226
49	0xbd4edde2	-0.050504573
50	0xbd1b8bbe	-0.037975065
51	0xbbe00f44	-0.0068377573
52	0x3d87e38f	0.066352
53	0xbd9742eb	-0.073858105
54	0xbd0fa10a	-0.03506569
55	0x3d7826fe	0.06058406
56	0xbd8497ac	-0.064742416
57	0x3c131a2d	0.008978409
58	0xbd929ef5	-0.07159225
59	0x3dae0961	0.08497883
60	0x3c965c30	0.018354505
61	0x3cbf62b8	0.023362502
62	0x3b9c613a	0.0047723325
63	0xbd58e09a	-0.05294857
64	0xbc33c575	-0.01097237
65	0x3d07adae	0.03312462
66	0xbd8aeace	-0.06783067
67	0x3cf51ed3	0.029921925
68	0xbd1c2af0	-0.038126886
69	0xbd4f16ef	-0.05055898
70	0x393fa75e	0.00018277529
71	0xbd0e508d	-0.034744788
72	0x3d1c1587	0.038106468
73	0x3cfa7c1c	0.030576758
74	0x3d82e142	0.06390621
75	0x3d923d87	0.07140642
76	0xbd418bcf	-0.047252472
77	0xbda817f1	-0.082076915
78	0x3d58ff5f	0.052977916
79	0x3d1a4168	0.037660033
80	0xbd6e799b	-0.05822144
81	0x3d19ab3b	0.037516814
82	0x3d8121ca	0.06305273
83	0x3d3ed0be	0.04658579
84	0x3cd16d00	0.02556467
85	0x3d4474de	0.047963016
86	0xbd3c793c	-0.046014056
87	0xbd695798	-0.0569683
88	0xbac09923	-0.0014694076
89	0x3d8a1504	0.0674229
90	0x3dadc42d	0.08484683
91	0x3d4bc3d1	0.049747292
92	0x3ce3f839	0.027828323
93	0x3d3a1db8	0.0454385
94	0x3d3b712c	0.045762226
95	0x3c8eaf5d	0.017417604
96	0x3cd38f9a	0.02582531
97	0xbd8aa0a8	-0.06768924
98	0xbdb1de0d	-0.08684931
99	0x3d912400	0.070869446
100	0x3c8498c3	0.016186124
101	0x3d5651c1	0.05232406
102	0xbd5002a2	-0.05078376
103	0x3d9d6ff7	0.07687371
104	0xbcce5950	-0.025189072
105	0xbd1e5098	-0.03865108
106	0x3da563cc	0.08075675
107	0xbdb33d03	-0.087518714
108	0xbdb23df6	-0.08703224
109	0x3d49ca75	0.049265344
110	0x3d663805	0.05620577
111	0xbdc0550c	-0.093912214
112	0x3d59fc5b	0.05321918
113	0x3ca6a199	0.020340728
114	0x3d224a13	0.039621424
115	0x3d0749da	0.033029415
116	0x3ca6492b	0.020298561
117	0xbdbfb6e9	-0.09361059
118	0x3d88d91d	0.06682036
119	0xbc29e104	-0.010368589
120	0x3bd7f915	0.006590972
121	0xbdad0def	-0.08449923
122	0xbdaef2d9	-0.08542413
123	0xbdab7e43	-0.08373692
124	0xbd2ffb9f	-0.042964574
125	0x3d1bf6bd	0.038077105
126	0xbd604916	-0.0547572
127	0x3d063385	0.032763977
128	0xbd47fa7f	-0.048822876
129	0x3d6fe432	0.058567233
130	0xbd9e80c7	-0.07739406
131	0x3d73cbaa	0.0595204
132	0xbd6bc4df	-0.057560798
133	0x3d2fb29e	0.042894952
134	0xbda21e9e	-0.07915996
135	0x3d64bdd2	0.05584509
136	0x3c95f433	0.01830492
137	0x3d88e399	0.06684036
138	0xbd6a2402	-0.057163246
139	0x3d48719e	0.04893648
140	0x3cb537be	0.022121307
141	0x3d9d9fb1	0.07696474
142	0xbdb7b275	-0.08969585
143	0x3d78acb7	0.06071159
144	0x3d87e064	0.06634596
145	0x3c38feaf	0.01129119
146	0x3d1e5378	0.03865382
147	0x3d72891e	0.059212796
148	0x3ce765d7	0.028246803
149	0xbb6162c8	-0.0034391154
150	0x3d2555b3	0.040364932
151	0xbda839d1	-0.082141526
152	0xbb2a7f61	-0.0026015865
153	0x3c617e2d	0.013762993
154	0xbd9afd20	-0.07567811
155	0x3d5f2e51	0.05448753
156	0x3db3b965	0.087755956
157	0xbd1abad8	-0.037775844
158	0xbd5c6c30	-0.053814113
159	0xbac73d14	-0.0015200698
160	0xbd8579ed	-0.06517396
161	0x3d9ed692	0.0775577
162	0xbd9b7f5d	-0.07592652
163	0xbd8f81e3	-0.07007196
164	0x3d2479ec	0.040155336
165	0xbc13da2d	-0.009024185
166	0x3c1f8804	0.0097370185
167	0x3b347b21	0.002753921
168	0x3dabf358	0.083960235
169	0xbd758979	-0.059945557
170	0x3bd88c75	0.0066085407
171	0x3bd08efe	0.0063647022
172	0xbd90da85	-0.07072929
173	0xbca4cc64	-0.020116992
174	0x3d84f3a3	0.064917825
175	0xbd8a4a1d	-0.06752417
176	0xbb816f6e	-0.003950051
177	0xbd889e20	-0.06670785
178	0xbd3163a0	-0.0433079
179	0x3c161292	0.009159701
180	0xbd9cb0ef	-0.07650935
181	0x3daeda93	0.085377835
182	0xbd8fd1d0	-0.070224404
183	0xbcf35c74	-0.029707171
184	0xbcd6feb5	-0.0262445
185	0x3cc8a633	0.024493312
186	0x3d6abe5e	0.057310455
187	0xbd4b8352	-0.049685784
188	0x3c885844	0.01664365
189	0xbcbf5d24	-0.023359843
190	0xbc9a58bb	-0.018841138
191	0x3dcbbdbc	0.09948298
192	0x3c2d5c59	0.010581099
193	0x3d935ff4	0.07196036
194	0xba8ec103	-0.0010891262
195	0xbb57d0c4	-0.003293083
196	0xbbbbb939	-0.0057288674
197	0xbd48a2d9	-0.04898343
198	0x3d3f0da3	0.046643864
199	0x3d89e727	0.06733542
200	0xbdbf9d0f	-0.093561284
201	0xbd8d8b28	-0.069113076
202	0xbd8ea43e	-0.069649205
203	0x3d71e82a	0.0590593
204	0x3c28f5ae	0.010312481
205	0xbcc9d5b4	-0.024638034
206	0xbd6c230a	-0.057650603
207	0xbd666fd4	-0.05625899
208	0x3d6b373a	0.057425715
209	0xbd5a989c	-0.053368196
210	0xbd422774	-0.047400907
211	0x3d89fba0	0.06737447
212	0xbd2b3ae7	-0.04180422
213	0xbda84b48	-0.08217484
214	0x3d31b3de	0.043384425
215	0x3d51a32e	0.05118101
216	0xbd727188	-0.059190303
217	0xbce4fe53	-0.027953302
218	0x3da63abe	0.08116673
219	0x3d8f6b4d	0.07002888
220	0xbcb6ad32	-0.022299383
221	0x3d8eab77	0.06966298
222	0xbc74a550	-0.014931992
223	0x3da5d650	0.080975175
224	0x3cc13a9d	0.02358752
225	0x3db35075	0.0875558
226	0x3aca01dd	0.0015411932
227	0xbc5f00c4	-0.013611022
228	0x3d23d3cd	0.03999691
229	0x3d22998d	0.03969722
230	0x3dc02f97	0.09384077
231	0xbaee2a17	-0.0018170503
232	0x3c8af06b	0.016960343
233	0xbda017f1	-0.078170665
234	0x3d9e0863	0.077164434
235	0xbd34bf9b	-0.04412804
236	0x3d43767c	0.047720417
237	0xbd215233	-0.039385032
238	0xbd9ba3eb	-0.07599624
239	0xbda0da36	-0.078541204
240	0xb9215d6b	-0.00015388957
241	0x3bd87cf7	0.006606694
242	0x3ca8567b	0.02054905
243	0xbd9afc72	-0.07567681
244	0xbd341933	-0.043969344
245	0x3c1c0f11	0.0095250765
246	0xbc321c7f	-0.010871052
247	0xbd437781	-0.04772139
248	0xbd82448e	-0.06360732
249	0xbaf568a1	-0.0018723198
250	0xbdb324ae	-0.087472305
251	0x3cfabcb5	0.03060756
252	0x3c68750f	0.014188065
253	0x3cfca037	0.030838115
254	0x3d01cffa	0.031692483
255	0x3da6aa12	0.08137907

lstm.weight_hh_l1 f4 [512, 128]
0	0xbdcd8f23	-0.10037067
1	0x3d39a74a	0.045325555
2	0xbd978411	-0.073982365
3	0x3d5f72d7	0.05455288
4	0x3cb98279	0.022645222
5	0x3bb3497c	0.0054714065
6	0x3cebebb4	0.028798915
7	0x3d81b10c	0.06332597
8	0x3bfea26f	0.0077708284
9	0xbd235ad3	-0.03988154
10	0xbc00b9af	-0.00785677
11	0x3bb525d0	0.0055281892
12	0x3d6e9df4	0.058256105
13	0x3c8151e4	0.015786119
14	0xbcb61279	-0.022225605
15	0xbcfd631e	-0.030931052
16	0xbd283606	-0.041067146
17	0xbc16d1a0	-0.009205252
18	0xbdb4829a	-0.08813973
19	0xbcc33c69	-0.023832517
20	0x3d5b8fea	0.053604044
21	0x3da7c038	0.0819096
22	0xbd23130d	-0.03981309
23	0x3cf75264	0.030190654
24	0x3daa09d8	0.08302659
25	0x3ca71409	0.020395296
26	0xbdb8c750	-0.09022391
27	0xbd444c2b	-0.047924202
28	0xbb84464d	-0.004036701
29	0xbca55b4a	-0.020185132
30	0x3ca2f30e	0.019891288
31	0xbd311f86	-0.043242954
32	0x3cd7f07b	0.026359787
33	0xbd33e76c	-0.043921873
34	0xbd239618	-0.039938062
35	0xbd0ba49c	-0.03409253
36	0xbca0cdb7	-0.019629342
37	0x3c0b2d92	0.0084947515
38	0xbcb4b862	-0.022060577
39	0xbba9220b	-0.005161529
40	0xbd9c6ded	-0.07638154
41	0xbd9e1a18	-0.07719821
42	0xbd80f8a0	-0.062974215
43	0x3d0ac2cb	0.033877175
44	0xbd3ca7e6	-0.046058558
45	0xbda4c006	-0.08044438
46	0xbd9fddb8	-0.07805961
47	0x3bff24a4	0.0077863503
48	0x3da7ed77	0.0819959
49	0xbcd97383	-0.026544338
50	0xbd69ab0f	-0.0570479
51	0x3d914e93	0.07095065
52	0x3d8e5f0b	0.06951722
53	0x3cbee126	0.023300719
54	0xbd319f3b	-0.043364745
55	0x3dbacdab	0.09121259
56	0xbd2289d6	-0.03968223
57	0x3d0e7b9b	0.034785848
58	0x3d32b65d	0.043630946
59	0x3db5f737	0.08885043
60	0x3d25cf83	0.0404811
61	0xbd8eb2f0	-0.06967723
62	0x3d22cc4d	0.039745618
63	0x3d8c1d73	0.068415545
64	0x3d5b4fca	0.05354289
65	0x3c3b4d48	0.0114319995
66	0xbda84902	-0.0821705
67	0xbd9535ed	-0.07285676
68	0x3bcc47bf	0.0062341387
69	0x3d6228eb	0.055214804
70	0x3a243e1d	0.0006265359
71	0xbcdfcce6	-0.027319383
72	0x3bd395ba	0.006457058
73	0x3d6c591c	0.05770217
74	0xbda48d29	-0.08034737
75	0x3d2fd3ce	0.042926602
76	0xbda369a2	-0.07979132
77	0x3d358176	0.044312917
78	0xbd8f56ec	-0.06999001
79	0xbd02eded	-0.031965185
80	0x3c885d37	0.01664601
81	0xbbcb8dd5	-0.006211976
82	0x3d524479	0.051334832
83	0x3b461bf9	0.0030229075
84	0x3c6194e5	0.013768409
85	0x3dab0b22	0.08351733
86	0xbda81d9e	-0.08208774
87	0xbd1eb29e	-0.03874456
88	0x3d5fb040	0.054611444
89	0x3d963e34	0.07336083
90	0x3d193876	0.03740736
91	0x3d296900	0.0413599
92	0x3db4b647	0.08823829
93	0x3d99c0b4	0.07507458
94	0x3d15fa35	0.03661557
95	0x3d6531d2	0.055955715
96	0x3d0de985	0.03464653
97	0xbc9fa026	-0.019485544
98	0x3bd1e69a	0.0064056637
99	0xbd8241b0	-0.06360185
100	0x3d6b17d5	0.057395775
101	0xbdb7a1f8	-0.0896644
102	0xbd939f1a	-0.072080806
103	0x3d511f37	0.05105516
104	0xbcc43c83	-0.023954635
105	0xbd6c7d86	-0.057736896
106	0x3d889f8a	0.06671055
107	0x3d246086	0.040131114
108	0x3dc17eed	0.09448037
109	0x3cc63b64	0.024198242
110	0xbc67b7dc	-0.014142957
111	0xbd58c158	-0.052918762
112	0x3d65ad89	0.0560737
113	0xbd1ebc9b	-0.038754087
114	0xbb0ea7f0	-0.002176758
115	0x3d42ff7e	0.047606938
116	0xbdab21e1	-0.08356071
117	0xbd909efe	-0.07061575
118	0x3d26e973	0.04074998
119	0x3d08f279	0.033434365
120	0x3c63c4fb	0.013901944
121	0xbd385ce5	-0.045010466
122	0xbd91c3ca	-0.07117422
123	0x3b9b701d	0.0047435896
124	0x3d7784f6	0.060429536
125	0xbd87bb6a	-0.06627543
126	0x3d56c239	0.05243132
127	0xbd9bcc97	-0.07607382
128	0xbb5bac2f	-0.0033519377
129	0xbd8bf05c	-0.06832954
130	0x3d3d4768	0.046210676
131	0xbbf2da35	-0.007411266
132	0x3d040e05	0.032239933
133	0x3d8643ba	0.065558866
134	0xbda227fa	-0.07917781
135	0x3d77cac4	0.060496107
136	0x3ce789f7	0.028264029
137	0x3d54d6a5	0.051962513
138	0xbdc4f693	-0.09617343
139	0x3d404d23	0.046948563
140	0xbccf593b	-0.025311103
141	0x3d1b7fd7	0.037963714
142	0xbd995fe4	-0.07488993
143	0xbceab9eb	-0.028653106
144	0xbd98d24a	-0.074619845
145	0x3d48450b	0.04889397
146	0xbcd8b580	-0.026453733
147	0x3d2ac62f	0.04169291
148	0xbcb2039a	-0.021730233
149	0x3d947764	0.072493345
150	0xbd44ab1f	-0.048014756
151	0x3d681bba	0.056667067
152	0xbd994952	-0.07484688
153	0x3c4468db	0.01198789
154	0x3c129291	0.008946077
155	0xbd3484f1	-0.044072095
156	0x3cd431f2	0.025902722
157	0x3d28f3d2	0.04124815
158	0x3d11f029	0.035629425
159	0x3d86b46d	0.06577382
160	0xbca17e14	-0.019713439
161	0xbd9cb2ad	-0.07651267
162	0x3d8180fa	0.063234285
163	0xbd8345e7	-0.06409817
164	0xbc0f3487	-0.008740551
165	0xbd71c1cb	-0.059022706
166	0x3cfbb8a0	0.030727684
167	0x3d195a03	0.037439357
168	0x3d63e63a	0.055639483
169	0xbdb0588c	-0.08610639
170	0x3d24deaa	0.04025141
171	0xbbf86c87	-0.007581297
172	0x3d1f4a20	0.03888905
173	0x3dbebfc8	0.09313923
174	0xbd163653	-0.0366729
175	0xbd6e294a	-0.058144845
176	0xbd82a483	-0.06379034
177	0xbd950d69	-0.072779484
178	0xbaf4fab0	-0.0018690433
179	0x3d46ebed	0.04856484
180	0x3d6620e7	0.056183722
181	0xbc9c60ce	-0.019089129
182	0x3cfe85cd	0.03106966
183	0x3d544f44	0.051833406
184	0x3d54c15a	0.051942207
185	0x3d2383e2	0.039920695
186	0xbcc912ec	-0.024545155
187	0xbc652e34	-0.013988066
188	0xbdb6d82c	-0.0892795
189	0x3abb5e9d	0.0014295165
190	0xbd7231db	-0.059129577
191	0x3bf47652	0.007460394
192	0xbc1b6ba6	-0.009486115
193	0x3d14c63b	0.03632186
194	0xbda19bb4	-0.07891026
195	0xbd98c95d	-0.07460282
196	0xbdc9d6d8	-0.09855431
197	0x3bad78e8	0.005293954
198	0x3b8e499b	0.0043422705
199	0x3d422e03	0.04740716
200	0xbcde0e2e	-0.02710637
201	0x3cbb7afe	0.022885796
202	0x3d8ed49d	0.069741465
203	0x3d9bd6f4	0.076093584
204	0xbc9191a3	-0.01776964
205	0xbd9839e7	-0.07432919
206	0x3cb610ea	0.022224862
207	0x3d1e2c84	0.038616672
208	0x3d24700a	0.04014591
209	0xbbc889df	-0.006119951
210	0xbc3888f0	-0.011263117
211	0x3c91d02d	0.017799461
212	0xbc486b33	-0.01223259
213	0x3ca4663a	0.020068277
214	0xbc856044	-0.016281255
215	0x3ca4db77	0.02012418
216	0x3d9770aa	0.07394536
217	0x3d51f7be	0.051261656
218	0x3d42335c	0.04741226
219	0xbd516c65	-0.051128764
220	0x3cb7859c	0.022402577
221	0xbcfbeb19	-0.030751752
222	0x3d3fd594	0.046834543
223	0xbd44e3c2	-0.04806877
224	0xbc2e88fa	-0.010652775
225	0xbd1bcd9e	-0.03803789
226	0xbd67ce5e	-0.05659329
227	0x3cf90091	0.030395778
228	0x3d50bdd1	0.050962273
229	0xbbc3dea1	-0.005977467
230	0x3c571b10	0.013129011
231	0xbd201a1b	-0.039087396
232	0xbabaca90	-0.0014251042
233	0xbdc806dc	-0.09766933
234	0x3d9019a6	0.07036142
235	0xbd1ea8a1	-0.038735036
236	0x3af75fe7	0.0018873186
237	0xbd528b73	-0.05140252
238	0x3dc9d2e9	0.09854681
239	0xbd20f1e2	-0.039293177
240	0xbd917631	-0.07102621
241	0x3d5b416b	0.053529184
242	0x3d828346	0.06372695
243	0xbd7e5fc3	-0.062103044
244	0xbd6f76ce	-0.05846291
245	0xbd530bb3	-0.05152483
246	0xbd804836	-0.06263773
247	0xbd9d5065	-0.0768135
248	0xbd7d35e4	-0.061818972
249	0xbd334eca	-0.04377631
250	0x3c620254	0.0137945
251	0x3d0fec32	0.035137363
252	0x3b4e39c9	0.0031467548
253	0xbd93802c	-0.07202181
254	0x3dabe1a9	0.08392651
255	0x3d8b71c8	0.068088114

lstm.bias_ih_l1 f4 [512]
0	0xbcb695ef	-0.02228829
1	0x3b10b61c	0.0022081202
2	0xbdbb53d3	-0.091468476
3	0x3cbb0715	0.022830525
4	0x3db07dc1	0.08617736
5	0xbd9f1cf3	-0.077691935
6	0x3c25aadc	0.010111537
7	0x3d0c6516	0.03427609
8	0x3daab79d	0.08335803
9	0x3d86d5c6	0.06583743
10	0x3ce3d175	0.027809838
11	0x3d0dcb38	0.034617633
12	0x3d849e69	0.06475527
13	0x3d279066	0.040909193
14	0x3c7d4837	0.015459112
15	0xbc0a7661	-0.008451075
16	0x3b2f8ca9	0.002678672
17	0xbcd1b2ac	-0.025597893
18	0xbd6c2a9e	-0.05765783
19	0xbdafc4f6	-0.08582489
20	0xbdadf0cf	-0.08493196
21	0xbd86c61b	-0.06580754
22	0xbc0505f4	-0.008119095
23	0xbd4a9e25	-0.049467225
24	0x3ce62254	0.02809254
25	0x3ccb0689	0.02478339
26	0x3d8c5e22	0.06853892
27	0x3c87069a	0.01648264
28	0xbd64c877	-0.05585524
29	0x3d294824	0.041328564
30	0x3d647389	0.055774245
31	0x3d13027f	0.035891052
32	0xbdac62ef	-0.084173076
33	0x3d17b978	0.03704211
34	0xbbdb4d08	-0.0066925324
35	0xbcd7c9a6	-0.02634127
36	0xbc308a5b	-0.010775174
37	0xbd8748c6	-0.06605677
38	0x3ccf7285	0.025323162
39	0x3d9e8d4b	0.07741793
40	0xbd8c9259	-0.06863851
41	0xbd17929f	-0.037005063
42	0xbc37b63e	-0.0112128835
43	0x3ce21f65	0.02760286
44	0xbdacf2a1	-0.08444715
45	0xbdabdc6b	-0.08391651
46	0x3d8ca221	0.06866861
47	0xbdab4fae	-0.08364807
48	0xbd46a445	-0.048496503
49	0x3d146492	0.036228724
50	0x3c8fa55a	0.0175349
51	0xbd76704b	-0.060165685
52	0x3d4dc3e6	0.05023565
53	0x3d965768	0.0734089
54	0x3d39567e	0.0452485
55	0xbcf14b96	-0.029454987
56	0x3c31397c	0.010816928
57	0x3d0a9a53	0.03383858
58	0x3c9309d0	0.017949015
59	0xbd3f694d	-0.046731282
60	0xbd06fc95	-0.032955725
61	0xbd5955e4	-0.053060427
62	0xbccaa172	-0.024735186
63	0xbd918dd3	-0.07107129
64	0x3c6c6cb1	0.014430211
65	0xbd3f1ec9	-0.04666022
66	0x3c367c27	0.011137999
67	0x3bb658ce	0.0055647856
68	0x3d01ae51	0.03166038
69	0xbc2e3e7f	-0.010635017
70	0xbc300ec8	-0.010745712
71	0xbd69f5fb	-0.05711935
72	0x3c8a4e47	0.016883029
73	0xbd6c4a85	-0.057688255
74	0xbd8e175e	-0.06938051
75	0x3dc656f3	0.09684553
76	0xbbe44b39	-0.006966975
77	0xbcf12eb1	-0.02944121
78	0xbd73b2b3	-0.059496593
79	0x3d0b33a6	0.033984803
80	0x3d9f8467	0.077889256
81	0x3c396e22	0.011317762
82	0x3d7a49a6	0.061105393
83	0x3d3c8f52	0.04603512
84	0xbcb7f9ee	-0.022458043
85	0x3ce1a518	0.027544543
86	0xbd2aedb4	-0.041730598
87	0xbba16b33	-0.004926109
88	0x3a1a4b43	0.00058858487
89	0x3d1c9ca6	0.03823533
90	0x3d919307	0.07108121
91	0x3d537bc2	0.051631697
92	0xbd9ac455	-0.075569786
93	0x3c98cee7	0.018653346
94	0xbd880e5b	-0.06643363
95	0xbd1b6e30	-0.03794688
96	0x3ca2967d	0.019847149
97	0xbda77688	-0.08176905
98	0xbd3384ee	-0.043827944
99	0x3ad1e174	0.0016012625
100	0xbd8cd2ad	-0.06876121
101	0xbccb0ba3	-0.024785822
102	0xbbbcf919	-0.0057669994
103	0x3dae9aef	0.08525645
104	0xbd96687c	-0.073441476
105	0xbd000ba7	-0.031261113
106	0xbd7408d4	-0.05957873
107	0xbba3baaa	-0.0049966173
108	0xbd84d1e8	-0.06485349
109	0xbd8eddbb	-0.069758855
110	0xbd42d495	-0.047566015
111	0x3d756c5b	0.05991779
112	0xbcc467b6	-0.023975234
113	0xbd592706	-0.05301573
114	0xbc5ecfd4	-0.013599355
115	0xbd986edf	-0.07443022
116	0x3d4f352d	0.05058782
117	0xbd704419	-0.058658693
118	0xba9a4223	-0.0011768978
119	0xbd8c3708	-0.06846434
120	0x3d2ad75d	0.041709293
121	0xbd9a86da	-0.07545252
122	0xbd5118bf	-0.05104899
123	0xbb93ed6d	-0.0045143873
124	0x3dbaaff9	0.09115595
125	0x3d9e6d5a	0.07735701
126	0x3daf7a77	0.0856828
127	0x3c86f390	0.016473562
128	0x3a523f4a	0.0008020295
129	0x3caf1b50	0.021375328
130	0x3d7aadff	0.06120109
131	0xbd068180	-0.032838345
132	0x3d8b2381	0.06793881
133	0xbdadbbf8	-0.08483118
134	0xbd14f9ef	-0.036371168
135	0xbd86746b	-0.06565174
136	0x3d35f85a	0.0444263
137	0xbc7ca6f0	-0.01542066
138	0x3d4fb270	0.05070728
139	0xbd92859f	-0.071543925
140	0xbdb4b3ac	-0.08823332
141	0x3da85e0c	0.08221063
142	0xbca80252	-0.020508919
143	0xbd95f29b	-0.07321664
144	0x3cfc3a11	0.030789407
145	0xbdaa5fe3	-0.0831907
146	0xbd2bb78a	-0.041923083
147	0x3ca76e38	0.020438299
148	0x3da310a1	0.07962156
149	0x3d42ea9a	0.047587015
150	0x3cbe033f	0.023194907
151	0xbd71e612	-0.059057303
152	0xbcb643a0	-0.022249043
153	0x3c91b4fe	0.0177865
154	0x3d8fc4c2	0.070199504
155	0xbd07f20b	-0.033189815
156	0x3d603ffa	0.054748513
157	0x3d99b710	0.075056195
158	0x3d2c1c46	0.04201915
159	0xbc8d98a3	-0.017284697
160	0x3d82f887	0.06395059
161	0x3d829f93	0.063780926
162	0xbd012890	-0.031532824
163	0x3d89efe0	0.06735206
164	0x3c310b19	0.010805869
165	0xbd39a28d	-0.045321036
166	0x3beb1d38	0.007175114
167	0xbd560602	-0.052251823
168	0x3b7606df	0.0037540717
169	0xbd87651f	-0.06611084
170	0x3c04bf9d	0.008102325
171	0x3c91c1b1	0.017792555
172	0x3d2395b1	0.03993768
173	0x3c2b6677	0.010461441
174	0xbd1f6ec4	-0.038923994
175	0xbd97567a	-0.07389541
176	0xbbc786de	-0.0060890755
177	0x3c265858	0.010152899
178	0x3d596771	0.053077165
179	0xbd85852e	-0.06519543
180	0x3da284fc	0.07935521
181	0xbd46b96a	-0.04851667
182	0x3c97b459	0.018518614
183	0x3d2f84de	0.04285132
184	0xbd5a6a5f	-0.0533241
185	0x3ca671a2	0.020317856
186	0xbd7ba6b7	-0.06143829
187	0x3d4bb6a7	0.049734738
188	0xbd2ef389	-0.042712722
189	0xbda4a7ae	-0.08039795
190	0xbd9dc3ab	-0.07703336
191	0xbb84e7ed	-0.004055968
192	0x3c92fdd9	0.01794331
193	0x3d90d365	0.0707157
194	0xbb341f9b	-0.0027484659
195	0xbd0b5ef8	-0.034026116
196	0xbd1559d0	-0.036462605
197	0x3caebfdd	0.021331722
198	0x3cfcc894	0.030857362
199	0xbc066bea	-0.00820444
200	0x3d2c0243	0.041994344
201	0x3c9f247b	0.019426575
202	0xbdb8d29c	-0.090245456
203	0x3da6b17d	0.08139322
204	0x3d63f0ba	0.055649497
205	0x3d91195d	0.07084916
206	0xbd367fba	-0.044555403
207	0x3d1fe6bf	0.039038416
208	0xbd1a1137	-0.037614074
209	0x3b226393	0.002477859
210	0xbd511a28	-0.051050335
211	0xbd81688a	-0.06318767
212	0x3d2ae3db	0.041721206
213	0x3d848444	0.0647054
214	0x3da967e6	0.0827177
215	0x3d265539	0.04060862
216	0x3d9e22e9	0.07721502
217	0x3d8f5ce7	0.070001416
218	0xbce0dd8d	-0.027449394
219	0x3d894659	0.06702871
220	0xbcfeeba6	-0.031118225
221	0x3d786587	0.0606437
222	0x3d84d77f	0.06486415
223	0x3d3a95a6	0.045552872
224	0xbd40d734	-0.047080234
225	0x3ca43ea5	0.020049402
226	0xbd225490	-0.039631426
227	0xbd69cbef	-0.05707925
228	0xbd3cb1d7	-0.04606804
229	0x3bd15fab	0.0063895783
230	0x3bf3ab6e	0.0074362075
231	0xbd7c6313	-0.061617922
232	0x3c84b2ef	0.016198603
233	0x3d39387b	0.04521988
234	0xbcd754ac	-0.026285492
235	0xbd47c026	-0.04876723
236	0xbd0262cd	-0.031832505
237	0x3daecd72	0.08535279
238	0x3d8abb05	0.067739524
239	0xbd917370	-0.07102096
240	0x3d9b96e9	0.07597143
241	0xbc378fec	-0.011203747
242	0xbb26aea8	-0.0025433693
243	0x3d85a98c	0.06526479
244	0xbcb71550	-0.02234903
245	0x3afce27f	0.0019293575
246	0xbd187050	-0.037216485
247	0xbd93ce51	-0.07217086
248	0x3cb8edea	0.022574384
249	0x3caa2244	0.020768292
250	0xbd7ca489	-0.06168035
251	0xbd8293ec	-0.0637587
252	0xbcdba88d	-0.02681377
253	0xbdb1ce4c	-0.08681926
254	0x3d8f5f94	0.07000652
255	0xbcbe1e6f	-0.023207871
